models/nn.tflite (tflite, 19984 bytes, 8 tensors)

sequential_1/dense_7/MatMul f4 [2, 32]
00000000: a84f dbbd 05ac 90bd f65f c43c b9f7 89bc
00000010: 9925 8c3e e15e 15be f3d8 86bc 4ef5 383d
00000020: bb6c ff3d e5bc e03d 4cbd 48be 73b3 1a3e
00000030: 380c d0bd a365 133e 1b97 2d3e 9f43 933e
00000040: 2258 a43c 1be1 c2bc 81bd 923e f7b4 283e
00000050: 1f4b e7bd 2a94 a13e f8e3 b2bd 3304 3e3d
00000060: 392b 953e cec9 6d3d b6ba 1ebe 9e5e b83d
00000070: c004 163e f5af 76be 976e 82be 0856 eabd
00000080: a9d6 96bd 079a adbc 6912 a1bc 98b2 25be
00000090: d48e 673e 75d9 59be 302c 8bbd 4e29 323d
000000a0: e79b 313e a75b 463e 1815 86bd 4b3c 1abd
000000b0: fa21 1bbe 8435 f53d ad24 553e 4aae 6c3e
000000c0: 2570 96bd 431e afbd 24e4 863e 676f f23d
000000d0: 3f41 0abe be8a 903e ec71 d4bc 5b40 e93c
000000e0: 9968 a83e fa7b ac3d 0e4f b9bd f641 30bc
000000f0: 9088 bbbc 7e8b b5be 312c b8be 654a 93bd
-0.107085526 -0.0706406 0.023971539 -0.016841756 0.27372435 -0.14586975 -0.016460871 0.045155816
0.124719106 0.10973529 -0.19603461 0.15107517 -0.101585805 0.1439424 0.16952173 0.28762528
0.020061556 -0.02378898 0.28660205 0.16475283 -0.11293625 0.31558353 -0.08734888 0.046390723
0.2913454 0.058053784 -0.15500912 0.09002422 0.1465025 -0.2409056 -0.25474998 -0.114421904
-0.07365162 -0.02119161 -0.019662099 -0.1618141 0.22613078 -0.2127436 -0.067955375 0.043496422
0.17344628 0.193709 -0.06546992 -0.037655156 -0.1514968 0.11973098 0.20814772 0.23113361
-0.073456086 -0.08550694 0.26345932 0.118376546 -0.13501452 0.28230852 -0.025933228 0.02847307
0.32892302 0.08422084 -0.090482816 -0.010757914 -0.022892267 -0.35457987 -0.35971215 -0.07191924

sequential_1/dense_7/BiasAdd/ReadVariableOp f4 [2]
00000000: eb41 43be 1241 433e
-0.19068114 0.19067791

sequential_1/dense_6/BiasAdd/ReadVariableOp f4 [32]
00000000: e76c 7d3f 660a 8f3f a267 42bf ab6e fdbd
00000010: 3fc2 8a3f 79ae 46be 376b 0fbe bbe0 40be
00000020: 6bf9 ebbe cea0 9a3f a71e 873f 980f 193f
00000030: 0608 4f3f 8f71 023f 72b6 723f 8cb7 65be
00000040: 1a30 363f c062 f83e 4a2b ac3e a4a9 7a3f
00000050: fa35 9d3e 3f5a f53e 492a 753f 14a0 29be
00000060: 8bb7 fc3e d916 d2be c00c e93e ced8 883e
00000070: dbd4 0b3f bce4 8abd 0ac8 9ebd 14ae 933e
0.98994297 1.1175048 -0.7593938 -0.12374624 1.0840529 -0.19402494 -0.14005743 -0.18835728
-0.46088728 1.2080324 1.0556229 0.5978942 0.8087162 0.50954527 0.9480964 -0.22433299
0.7116715 0.4851284 0.33626777 0.979151 0.30705243 0.47920415 0.9576765 -0.16564971
0.49358782 -0.41033056 0.4551754 0.2672791 0.54621667 -0.06781909 -0.07752998 0.2884375

sequential_1/dense_5/BiasAdd/ReadVariableOp f4 [64]
00000000: 1a78 64bc 07de 13bf b796 183f cc11 eb3e
00000010: ad30 90be 9abc 413f e056 493e c598 13bf
00000020: 941e 5dbe 9eaa 4c3f e7ba ea3e 8791 91be
00000030: 7d6b 6e3e ada3 35bf 58dd 16bd e433 a2bd
00000040: 7013 2a3e 175e 123f 2375 fdbe 528a 19bf
00000050: a218 c5be 2c81 873f 2170 b33e 71e1 ab3e
00000060: 21d6 67bf bc0b 683e ef51 803f 763c 24bf
00000070: d9c0 15bf 2734 f5be 4cb1 a03b 6c8a 1dbe
00000080: a1ff 33bf a794 eebc c2d8 50bf af5e eebe
00000090: 496a fd3e d56a 5f3e 4cc5 bebd 0e97 993d
000000a0: 8baf a8be 1b85 18bf 0e28 ae3c e5f5 45bf
000000b0: cf3b 793f 7a06 21be 6211 fcbe 3179 acbd
000000c0: d5de b93d f860 953e 728d 5fbf fc65 94be
000000d0: aff8 c13d 01a9 8c3f b890 8fbe ba2b 30bf
000000e0: b49b bcbe 4c3f abbe 5dfd 10bf d11c 553e
000000f0: 2c90 923f ac55 473f c8b9 e83e 9463 f03d
-0.01394465 -0.5776066 0.5960497 0.45912015 -0.28162137 0.7567841 0.19662046 -0.5765498
-0.21593696 0.7994784 0.4584572 -0.2843134 0.23283191 -0.70952874 -0.036832184 -0.079200536
0.16608977 0.5717482 -0.4950343 -0.59976685 -0.38495356 1.0586295 0.35046485 0.33570436
-0.9056111 0.22660726 1.0025004 -0.64154756 -0.5849739 -0.47891352 0.004903948 -0.15384835
-0.70311934 -0.029123617 -0.81580746 -0.46556613 0.49495152 0.21818097 -0.09314975 0.074995145
-0.3294643 -0.595781 0.021259334 -0.7732833 0.97356886 -0.15725127 -0.49232012 -0.08421553
0.09075705 0.29175544 -0.87325203 -0.28984058 0.09471261 1.0989076 -0.280401 -0.6881672
-0.36837542 -0.3344673 -0.566366 0.20811774 1.1450248 0.778651 0.4545424 0.11737743

sequential_1/dense_4/BiasAdd/ReadVariableOp f4 [128]
00000000: 5ea1 92bd c53c 813e 8894 02bf 4cf5 edbe
00000010: 5737 d83d ff51 253e 14bc c7be 92e1 bbbe
00000020: a370 9ebe 97e0 5dbe 9f6d bb3e 02e0 9dbe
00000030: 0421 aabe 343a 0dbc f614 fabe 0fa9 cdbe
00000040: e204 47be a28b 0abf e238 82be 8e5e 333e
00000050: 0779 79be 603b c9be 2243 6cbe ad25 59bd
00000060: 543f 47be 1582 80be 7b6f c63d cc7c 473d
00000070: 83db 25bf d97a 01bf 4837 0cbf 33ff 5dbe
00000080: c96f c1be bf54 96be 7a93 43be 4f37 d2be
00000090: 6a20 063e c3c8 7fbe a687 d5be 970e fb3d
000000a0: 2e95 80be 334d c9be e2b4 b3be 4fa9 00bf
000000b0: 5a42 acbe d37a 05be 77b5 263e 9be0 efbe
000000c0: e00c 043c 5fac 9fbe 640a 6fbe 77af c4bb
000000d0: 3eaa cebc 856b 82be a8a4 0e3e 2678 efbb
000000e0: 3d46 513e df5b 003c ccb5 62be bedb bcbe
000000f0: 48b6 b43e d9d1 d8be 0c7f 63bc 46ac bbbe
00000100: 70bb 69be d19a 9c3d 98ec 083d 6b11 9cbe
00000110: 645e e2be 550c ab3e 052e f2be 10bc b1be
00000120: 90ce 8abe c2db 31be bd38 bdbd 73b5 26be
00000130: af2e cabe d135 a13c 55df 50bd e842 8c3e
00000140: f50b 2abf aaf6 593e 0d38 c33d d41f 203d
00000150: 7f09 0cbf 6f5a 0cbf 4bd9 a5bb 30ca 58be
00000160: b22d eabe 833f 07bf 896f c4be f31e f53e
00000170: b1e1 d43d 97d8 93be ac33 28bf a841 6bbd
00000180: ed8f 873e f049 9cbe 7895 97be 2be9 7cbe
00000190: 8fb9 c3bd bd09 003e 2d91 76be 2f8a 29bf
000001a0: 1b77 30bf e6c6 3fbf 6099 03bf 2625 36bd
000001b0: a2a8 41bf 3d88 b6be d92b 0dbf e8c6 333e
000001c0: 21b9 84be a4eb 9abe 0c1c 04bf 9fac 39be
000001d0: d291 83be 0a68 1fbf 2d9e c4be 202c 8abd
000001e0: 6b6a 7c3c f8a0 e1bd b776 00be 5d50 2dbe
000001f0: 39b7 77be 2e52 c7be fa59 eebe d106 963d
-0.071596846 0.25241676 -0.5100789 -0.4647621 0.1055743 0.1614456 -0.3901068 -0.36695534
-0.3094531 -0.21667705 0.36607072 -0.30834967 -0.33228314 -0.008619834 -0.48844117 -0.40168044
-0.19435456 -0.5411931 -0.25434023 0.17516539 -0.24362575 -0.39303112 -0.23072484 -0.053014446
-0.19457752 -0.25099245 0.09689232 0.048703 -0.64788073 -0.50578076 -0.5477185 -0.21679382
-0.37780598 -0.2936153 -0.19099227 -0.41057822 0.13098302 -0.24978928 -0.41705054 0.12258642
-0.25113815 -0.3931671 -0.3509894 -0.50258344 -0.33644372 -0.13035135 0.16280161 -0.46851048
0.00805971 -0.31186196 -0.23343807 -0.0060023624 -0.025227662 -0.25472656 0.13929999 -0.007308024
0.2043695 0.007834404 -0.22139663 -0.368864 0.3529532 -0.423476 -0.013885271 -0.36654872
-0.22825408 0.076467164 0.03342876 -0.3048204 -0.4421264 0.33407846 -0.47300735 -0.34713793
-0.2711072 -0.17368987 -0.092393376 -0.16280155 -0.39488742 0.019678982 -0.050994236 0.27394795
-0.66424495 0.21285501 0.09532175 0.039092854 -0.5470199 -0.5482549 -0.0050613037 -0.21170878
-0.45737988 -0.52831286 -0.38366345 0.47875175 0.1039461 -0.28876182 -0.65703845 -0.05743566
0.26476994 -0.3052516 -0.29606223 -0.24698322 -0.09556877 0.12503715 -0.24078818 -0.66226476
-0.6893174 -0.7491287 -0.51405907 -0.04446902 -0.7564794 -0.35650817 -0.5514503 0.17556345
-0.25922492 -0.30257905 -0.51605296 -0.18132256 -0.2569719 -0.62268126 -0.3840193 -0.067466974
0.015406231 -0.110170305 -0.12545286 -0.16925187 -0.24190988 -0.38929886 -0.46553022 0.07325519

sequential_1/dense_4/MatMul i1 [128, 46] scale=0.035691448 zero_point=0
00000000: 10e4 fb04 feff fe06 1a14 19f9 0800 0802
00000010: 03ed e5f5 01ff fdfc 0505 0df8 fb05 1101
00000020: 01e0 01e3 efdc ef07 fee2 0400 03d0 f0dd
00000030: 0c02 fefd ffff fa00 f0f4 03fb 01f1 f9e6
00000040: dff9 e9fc fc03 0403 f502 fcff fe00 fdfe
00000050: 09fc 03f8 08fd 03fb f7ee ff01 d700 08fb
00000060: 00fc 0909 0a09 01fb 0d05 fee9 08f0 f306
00000070: f40c fdfc 06fc 0806 ff03 0503 fdfd f808
00000080: 07ff 0907 0000 06f4 0003 cc02 0ef4 fbfa
00000090: 0807 0104 efff 0b01 edfa 01fe 0200 f907
000000a0: fdfe 06fb f9fe 050b 0501 ffff f609 01fa
000000b0: fd11 09fd 02f8 1102 13c9 f300 fafe 04fc
000000c0: fa00 f8f4 0600 140f ffe3 d301 ebfe 0003
000000d0: fafc f4fb 0005 fe00 f802 fb02 f6fc fbfc
000000e0: 00ff f807 03ff 28fc fb00 fcfe fa03 04fa
000000f0: 0500 fbfb ec05 04cb b3fc 03fd 0204 04fe
0.57106316 -0.99936056 -0.17845723 0.14276579 -0.071382895 -0.035691448 -0.071382895 0.21414869
0.9279776 0.7138289 0.8922862 -0.24984014 0.28553158 0.0 0.28553158 0.071382895
0.10707434 -0.6781375 -0.96366906 -0.39260593 0.035691448 -0.035691448 -0.10707434 -0.14276579
0.17845723 0.17845723 0.4639888 -0.28553158 -0.17845723 0.17845723 0.6067546 0.035691448
0.035691448 -1.1421263 0.035691448 -1.035052 -0.6067546 -1.2848921 -0.6067546 0.24984014
-0.071382895 -1.0707434 0.14276579 0.0 0.10707434 -1.7131895 -0.57106316 -1.2492007
0.42829737 0.071382895 -0.071382895 -0.10707434 -0.035691448 -0.035691448 -0.21414869 0.0
-0.57106316 -0.42829737 0.10707434 -0.17845723 0.035691448 -0.5353717 -0.24984014 -0.9279776
-1.1778178 -0.24984014 -0.8209033 -0.14276579 -0.14276579 0.10707434 0.14276579 0.10707434
-0.39260593 0.071382895 -0.14276579 -0.035691448 -0.071382895 0.0 -0.10707434 -0.071382895
0.32122302 -0.14276579 0.10707434 -0.28553158 0.28553158 -0.10707434 0.10707434 -0.17845723
-0.32122302 -0.64244604 -0.035691448 0.035691448 -1.4633493 0.0 0.28553158 -0.17845723
0.0 -0.14276579 0.32122302 0.32122302 0.35691446 0.32122302 0.035691448 -0.17845723
0.4639888 0.17845723 -0.071382895 -0.8209033 0.28553158 -0.57106316 -0.4639888 0.21414869
-0.42829737 0.42829737 -0.10707434 -0.14276579 0.21414869 -0.14276579 0.28553158 0.21414869
-0.035691448 0.10707434 0.17845723 0.10707434 -0.10707434 -0.10707434 -0.28553158 0.28553158
0.24984014 -0.035691448 0.32122302 0.24984014 0.0 0.0 0.21414869 -0.42829737
0.0 0.10707434 -1.8559552 0.071382895 0.49968028 -0.42829737 -0.17845723 -0.21414869
0.28553158 0.24984014 0.035691448 0.14276579 -0.6067546 -0.035691448 0.39260593 0.035691448
-0.6781375 -0.21414869 0.035691448 -0.071382895 0.071382895 0.0 -0.24984014 0.24984014
-0.10707434 -0.071382895 0.21414869 -0.17845723 -0.24984014 -0.071382895 0.17845723 0.39260593
0.17845723 0.035691448 -0.035691448 -0.035691448 -0.35691446 0.32122302 0.035691448 -0.21414869
-0.10707434 0.6067546 0.32122302 -0.10707434 0.071382895 -0.28553158 0.6067546 0.071382895
0.6781375 -1.9630296 -0.4639888 0.0 -0.21414869 -0.071382895 0.14276579 -0.14276579
-0.21414869 0.0 -0.28553158 -0.42829737 0.21414869 0.0 0.7138289 0.5353717
-0.035691448 -1.035052 -1.6061151 0.035691448 -0.7495204 -0.071382895 0.0 0.10707434
-0.21414869 -0.14276579 -0.42829737 -0.17845723 0.0 0.17845723 -0.071382895 0.0
-0.28553158 0.071382895 -0.17845723 0.071382895 -0.35691446 -0.14276579 -0.17845723 -0.14276579
0.0 -0.035691448 -0.28553158 0.24984014 0.10707434 -0.035691448 1.4276578 -0.14276579
-0.17845723 0.0 -0.14276579 -0.071382895 -0.21414869 0.10707434 0.14276579 -0.21414869
0.17845723 0.0 -0.17845723 -0.17845723 -0.7138289 0.17845723 0.14276579 -1.8916467
-2.7482414 -0.14276579 0.10707434 -0.10707434 0.071382895 0.14276579 0.14276579 -0.071382895

sequential_1/dense_5/MatMul i1 [64, 128] scale=0.012908216 zero_point=0
00000000: 2220 e9eb f4f0 06d9 ecf0 f90f f007 fdf9
00000010: 16f6 ee40 fef3 104a 025b 1828 fbf2 f7f3
00000020: ed04 151c 06f8 f445 0cf6 fc05 fdec 10e8
00000030: 0cff f906 f03f 11fd 5c13 ee17 05f7 f726
00000040: 0415 12df 1e0f ffe6 1109 1300 2af9 2e02
00000050: e554 06f8 f3fc 28e7 0703 0ff2 2ccf f6fa
00000060: 1905 d338 0e0f 2af4 1be9 f90a 0006 fc00
00000070: fafd 0e28 0ffa 1f12 0b11 64cd d003 fc2f
00000080: f3f7 faf2 06ff 1728 0813 d80a f3c1 180c
00000090: f019 0dce 1f0d 00e9 1bc7 ffbd 1609 1918
000000a0: fe0a 001d e924 130a 2206 0d0a 080b 0622
000000b0: 04fb fada ffff 04fd cde8 ecf8 cefa fc02
000000c0: f3e6 d11f 21bf 1bf9 fae3 1618 15ea 111f
000000d0: 0fb4 edfd 1705 f235 1b0d 16fc e424 0d06
000000e0: e300 f712 f5fb 090f f213 fffb 1d06 eaf2
000000f0: 1119 0102 2705 05fb cee7 f808 1015 1bb6
0.43887934 0.4130629 -0.29688895 -0.27107254 -0.15489858 -0.20653145 0.07744929 -0.5034204
-0.25816432 -0.20653145 -0.09035751 0.19362323 -0.20653145 0.09035751 -0.038724646 -0.09035751
0.28398076 -0.12908216 -0.23234788 0.8261258 -0.025816431 -0.1678068 0.20653145 0.95520794
0.025816431 1.1746476 0.30979717 0.51632863 -0.06454108 -0.18071502 -0.11617394 -0.1678068
-0.2452561 0.051632863 0.27107254 0.36143005 0.07744929 -0.103265725 -0.15489858 0.8906669
0.15489858 -0.12908216 -0.051632863 0.06454108 -0.038724646 -0.25816432 0.20653145 -0.30979717
0.15489858 -0.012908216 -0.09035751 0.07744929 -0.20653145 0.8132176 0.21943967 -0.038724646
1.1875558 0.2452561 -0.23234788 0.29688895 0.06454108 -0.11617394 -0.11617394 0.4905122
0.051632863 0.27107254 0.23234788 -0.42597112 0.38724646 0.19362323 -0.012908216 -0.3356136
0.21943967 0.11617394 0.2452561 0.0 0.5421451 -0.09035751 0.5937779 0.025816431
-0.34852183 1.0842901 0.07744929 -0.103265725 -0.1678068 -0.051632863 0.51632863 -0.3227054
0.09035751 0.038724646 0.19362323 -0.18071502 0.5679615 -0.63250256 -0.12908216 -0.07744929
0.3227054 0.06454108 -0.5808697 0.7228601 0.18071502 0.19362323 0.5421451 -0.15489858
0.34852183 -0.29688895 -0.09035751 0.12908216 0.0 0.07744929 -0.051632863 0.0
-0.07744929 -0.038724646 0.18071502 0.51632863 0.19362323 -0.07744929 0.40015468 0.23234788
0.14199038 0.21943967 1.2908216 -0.658319 -0.61959434 0.038724646 -0.051632863 0.6066861
-0.1678068 -0.11617394 -0.07744929 -0.18071502 0.07744929 -0.012908216 0.29688895 0.51632863
0.103265725 0.2452561 -0.51632863 0.12908216 -0.1678068 -0.8132176 0.30979717 0.15489858
-0.20653145 0.3227054 0.1678068 -0.6454108 0.40015468 0.1678068 0.0 -0.29688895
0.34852183 -0.7357683 -0.012908216 -0.86485046 0.28398076 0.11617394 0.3227054 0.30979717
-0.025816431 0.12908216 0.0 0.37433824 -0.29688895 0.46469575 0.2452561 0.12908216
0.43887934 0.07744929 0.1678068 0.12908216 0.103265725 0.14199038 0.07744929 0.43887934
0.051632863 -0.06454108 -0.07744929 -0.4905122 -0.012908216 -0.012908216 0.051632863 -0.038724646
-0.658319 -0.30979717 -0.25816432 -0.103265725 -0.6454108 -0.07744929 -0.051632863 0.025816431
-0.1678068 -0.3356136 -0.6066861 0.40015468 0.42597112 -0.839034 0.34852183 -0.09035751
-0.07744929 -0.37433824 0.28398076 0.30979717 0.27107254 -0.28398076 0.21943967 0.40015468
0.19362323 -0.9810244 -0.2452561 -0.038724646 0.29688895 0.06454108 -0.18071502 0.68413544
0.34852183 0.1678068 0.28398076 -0.051632863 -0.36143005 0.46469575 0.1678068 0.07744929
-0.37433824 0.0 -0.11617394 0.23234788 -0.14199038 -0.06454108 0.11617394 0.19362323
-0.18071502 0.2452561 -0.012908216 -0.06454108 0.37433824 0.07744929 -0.28398076 -0.18071502
0.21943967 0.3227054 0.012908216 0.025816431 0.5034204 0.06454108 0.06454108 -0.06454108
-0.6454108 -0.3227054 -0.103265725 0.103265725 0.20653145 0.27107254 0.34852183 -0.95520794

sequential_1/dense_6/MatMul i1 [32, 64] scale=0.007106254 zero_point=0
00000000: 00fe b40f ec54 d41f f4c1 1aea 07f3 08c8
00000010: fe01 e00c 15b2 a900 09fa b701 eeef 0b1b
00000020: d70a 18e5 0c09 e909 f032 caea c313 d10c
00000030: fd19 f8ec f4d6 fb0a e4f1 df03 051e ec1e
00000040: f2f8 020c 1d29 1809 16c6 1de2 fd09 09c5
00000050: f8f9 fff1 0fb8 04c7 f3ff b3ea f10f f9f4
00000060: dff3 1904 0509 c5e8 f119 e8fd aefb ec09
00000070: bc17 eb1a 1ad2 fff6 da0b da08 04d7 0df1
00000080: dbd9 2bec 0146 44c5 dc3c 1af2 24e6 ee37
00000090: e931 28f8 132d 4312 ea05 251c d604 11cb
000000a0: eaf0 f3a9 d8ea 0be2 d0fa 18d1 35d3 e62f
000000b0: f9fc f219 5deb efcd 15d9 f802 245a 18ed
000000c0: 1fe1 14d5 d70f 1af2 2521 0713 2801 1bf4
000000d0: fdfb cc01 0813 4208 0ded e0f2 2e0b 041c
000000e0: 0f11 0dcc c6f8 fdf7 e110 1bea e40b f9ef
000000f0: e5ec fbf0 0e24 edeb f2dd 09e7 372d 16ea
0.0 -0.014212508 -0.5400753 0.10659381 -0.14212507 0.5969253 -0.31267518 0.22029386
-0.08527505 -0.447694 0.1847626 -0.15633759 0.04974378 -0.0923813 0.05685003 -0.39795023
-0.014212508 0.007106254 -0.22740012 0.08527505 0.14923133 -0.5542878 -0.6182441 0.0
0.06395628 -0.042637523 -0.5187565 0.007106254 -0.12791257 -0.120806314 0.078168795 0.19186886
-0.2913564 0.071062535 0.1705501 -0.19186886 0.08527505 0.06395628 -0.16344383 0.06395628
-0.11370006 0.3553127 -0.3837377 -0.15633759 -0.43348148 0.13501883 -0.33399394 0.08527505
-0.021318762 0.17765635 -0.05685003 -0.14212507 -0.08527505 -0.29846266 -0.035531268 0.071062535
-0.19897512 -0.10659381 -0.23450638 0.021318762 0.035531268 0.21318762 -0.14212507 0.21318762
-0.09948756 -0.05685003 0.014212508 0.08527505 0.20608136 0.2913564 0.1705501 0.06395628
0.15633759 -0.41216272 0.20608136 -0.21318762 -0.021318762 0.06395628 0.06395628 -0.41926897
-0.05685003 -0.04974378 -0.007106254 -0.10659381 0.10659381 -0.51165026 0.028425016 -0.40505648
-0.0923813 -0.007106254 -0.54718155 -0.15633759 -0.10659381 0.10659381 -0.04974378 -0.08527505
-0.23450638 -0.0923813 0.17765635 0.028425016 0.035531268 0.06395628 -0.41926897 -0.1705501
-0.10659381 0.17765635 -0.1705501 -0.021318762 -0.5827128 -0.035531268 -0.14212507 0.06395628
-0.48322526 0.16344383 -0.14923133 0.1847626 0.1847626 -0.32688767 -0.007106254 -0.071062535
-0.27003765 0.078168795 -0.27003765 0.05685003 0.028425016 -0.2913564 0.0923813 -0.10659381
-0.2629314 -0.2771439 0.3055689 -0.14212507 0.007106254 0.49743778 0.48322526 -0.41926897
-0.25582513 0.42637524 0.1847626 -0.09948756 0.25582513 -0.1847626 -0.12791257 0.39084396
-0.16344383 0.34820643 0.28425014 -0.05685003 0.13501883 0.31978142 0.476119 0.12791257
-0.15633759 0.035531268 0.2629314 0.19897512 -0.29846266 0.028425016 0.120806314 -0.37663147
-0.15633759 -0.11370006 -0.0923813 -0.6182441 -0.28425014 -0.15633759 0.078168795 -0.21318762
-0.3411002 -0.042637523 0.1705501 -0.33399394 0.37663147 -0.31978142 -0.1847626 0.33399394
-0.04974378 -0.028425016 -0.09948756 0.17765635 0.66088164 -0.14923133 -0.120806314 -0.36241895
0.14923133 -0.2771439 -0.05685003 0.014212508 0.25582513 0.63956285 0.1705501 -0.13501883
0.22029386 -0.22029386 0.14212507 -0.3055689 -0.2913564 0.10659381 0.1847626 -0.09948756
0.2629314 0.23450638 0.04974378 0.13501883 0.28425014 0.007106254 0.19186886 -0.08527505
-0.021318762 -0.035531268 -0.3695252 0.007106254 0.05685003 0.13501883 0.46901277 0.05685003
0.0923813 -0.13501883 -0.22740012 -0.09948756 0.32688767 0.078168795 0.028425016 0.19897512
0.10659381 0.120806314 0.0923813 -0.3695252 -0.41216272 -0.05685003 -0.021318762 -0.06395628
-0.22029386 0.11370006 0.19186886 -0.15633759 -0.19897512 0.078168795 -0.04974378 -0.120806314
-0.19186886 -0.14212507 -0.035531268 -0.11370006 0.09948756 0.25582513 -0.13501883 -0.14923133
-0.09948756 -0.24871889 0.06395628 -0.17765635 0.39084396 0.31978142 0.15633759 -0.15633759
